models/BP_24.pt (torch, 503543 bytes, 18 tensors)

weights f4 [13824]
00000000: 3963 4f3f 1d8b 1c3f 7bf2 3e3f 98c4 183f
00000010: 7b4c 263f 8bf0 ee3e a400 073f b161 493f
00000020: b580 423f e7bd ee3e d41d ca3e a149 353f
00000030: b20f 813f 820c 743f 485d 3d3f 25e6 3f3f
00000040: 979b 763f 7941 883f edd9 813f d12f 873f
00000050: 0239 943f 2845 973f 9668 ab3f d869 a43f
00000060: 8e26 1a3f ed60 6a3f 643a b73e 279d 4f3f
00000070: c2f4 123f a98b 093e e525 b13e 14ff 363f
00000080: f574 1c3f 1f94 9c3e 325a c73e 3764 563f
00000090: e685 8d3f 965f 703f a5b5 2a3f cc3d 273f
000000a0: e4a3 4f3f 5b60 623f ebe0 6c3f 6085 893f
000000b0: 448e 8f3f 7644 863f 1d22 a03f 0eba ab3f
000000c0: 7f79 323f cad3 263f 5cf5 cb3d 48c1 313f
000000d0: 96eb d83e 31d6 513e 2639 103f 337d 3a3f
000000e0: 06eb c23e aca4 d43d a25a a23e d1b5 2f3f
000000f0: 785f 3d3f 31ef 0f3f 3c2d 113f 61ed 513f
00000100: 9a0b 7c3f e2ec 6b3f f97d 693f 21eb 893f
00000110: 9bfd 8d3f ce0c 883f 3dd2 983f 5cca 993f
00000120: 9e27 223f 8e88 0c3f f260 e33e e2c4 4a3f
00000130: fff0 943e 4f1f 6d3e 2903 223f f2e3 193f
00000140: 0ef5 5d3e e801 633e 675e 303f 5d87 773f
00000150: 04a1 3b3f bf42 da3e 1fdd 043f 53a1 533f
00000160: df4e 5f3f 7392 2c3f ddff 2d3f b318 703f
00000170: 33f4 843f b383 893f 292d 993f 4c5f 943f
00000180: d359 163f 0b1d c03e 7875 0b3f 4bdb 1b3f
00000190: 32f1 623d e8ff 593e 3ef8 133f 698b ae3e
000001a0: 8042 adbc 38b3 793e 242c 5d3f c942 823f
000001b0: a33b 163f 7e4f 833e 7314 f03e 33f1 5a3f
000001c0: e444 643f e89a 313f 539a 393f 065d 713f
000001d0: e0c3 753f cf52 7d3f b8b4 953f 2c82 973f
000001e0: e214 163f ef55 923e 040d 0d3f c316 ab3e
000001f0: 2e40 04be 2715 663e abd3 f53e 685d ae3d
00000200: af6b 40be 5bd4 893e 9706 693f af9e 6b3f
00000210: 8262 cb3e ad53 e83d 4264 c93e 53f0 473f
00000220: 366f 543f 9370 383f 919e 503f 63e2 793f
00000230: 5809 6c3f 2dee 723f 4b9c 923f e7fd 913f
00000240: 2cf6 103f cb45 a23e 8d24 2a3f 39fd 4a3e
00000250: f849 cabd 226a c93e 587e f73e 24fc f3bc
00000260: ad71 50be aa4a ad3e 43e6 633f e514 493f
00000270: 0c7e 983e 57ed 003e fec9 cf3e e643 2e3f
00000280: e25a 2e3f 0f74 253f 04be 4a3f 64c8 6b3f
00000290: 8652 653f 1295 7a3f b97d 913f e57e 853f
000002a0: 17fe 0c3f 99df a13e b55f 463f 9688 d53d
000002b0: 85ce 06bc 2ad2 0c3f 251a e63e bbf6 01be
000002c0: 254c 39be 0f79 c43e 8cb2 4a3f 0a62 1b3f
000002d0: 60a0 753e 4b76 683e 1ae5 fe3e 4401 243f
000002e0: f43e 153f e61a 183f e666 3d3f 90e0 513f
000002f0: a800 5d3f da8b 813f 785d 8e3f 8c79 7d3f
00000300: 537d 143f 8339 653e 7cb7 473f 3bf4 65bd
00000310: 02ef a5bc 2c39 073f e9ac 803e c7dd 94be
00000320: 1fa1 11be 70a5 f13e 666a 3c3f d8b0 ed3e
00000330: 0b97 463e 556d 9d3e 2294 113f 84cc 203f
00000340: 9a06 113f 246c 213f bb61 3e3f a334 3f3f
00000350: 8bd9 563f d97f 813f 4955 853f 732e 813f
00000360: aa26 213f 6c94 1c3e 40cb 493f a88c 32be
00000370: 7aa4 1ebd 5af9 e73e 199d 053d afdf d3be
00000380: 54f8 c5bc 6243 293f 40cf 4a3f 4f40 d13e
00000390: ab5f 273e d372 a83e 1258 103f 3694 153f
000003a0: fd68 113f 75e5 323f 945c 463f a44d 333f
000003b0: d18f 543f 210e 813f 80cf 713f b9a4 853f
000003c0: c710 1f3f 3051 2d3e a451 653f 3800 1cbe
000003d0: fdea 763d b760 003f 1d57 10bd ae04 dbbe
000003e0: 7b7b e03d c225 503f 4945 533f a0a9 b53e
000003f0: 69c3 fd3d aa3a a13e fc92 053f 7313 063f
0.81010777 0.6114977 0.74588746 0.5967498 0.6496045 0.46667895 0.5273535 0.7866469
0.7597764 0.4662926 0.39475882 0.70815474 1.0082915 0.95331585 0.7397046 0.7496055
0.9633116 1.0644981 1.0144631 1.0561467 1.1579897 1.181798 1.3391292 1.2844801
0.6021508 0.91554147 0.35786736 0.8109917 0.5740472 0.13432182 0.34599224 0.7148297
0.6111596 0.30581757 0.38936 0.83746666 1.1056488 0.9389585 0.6668342 0.6532867
0.8110945 0.88428277 0.925307 1.0743828 1.1215291 1.0489643 1.251041 1.3416154
0.6971664 0.65166914 0.09958908 0.6943555 0.42367238 0.20491864 0.563372 0.7284729
0.38069934 0.10382971 0.31709772 0.68636805 0.739738 0.5622435 0.5670965 0.82002836
0.984552 0.9215833 0.91207844 1.0774881 1.1093019 1.0628908 1.193916 1.201488
0.633417 0.54895866 0.444099 0.7920667 0.29090115 0.23156475 0.6328607 0.6011344
0.21675512 0.22168696 0.68894047 0.9669092 0.73292565 0.42629048 0.51899904 0.82668036
0.8722972 0.67410964 0.6796854 0.9378769 1.0387024 1.0743316 1.1966907 1.1591582
0.5873081 0.37522158 0.5447612 0.6088149 0.055405803 0.21289027 0.5780066 0.34090737
-0.021149874 0.24384773 0.8639548 1.0176631 0.5868475 0.25646585 0.46890602 0.8552429
0.8916762 0.69376993 0.72501105 0.9428257 0.96002007 0.9895448 1.1695776 1.18366
0.58625615 0.28581187 0.55097985 0.33415803 -0.12915108 0.22469006 0.48013052 0.085139096
-0.18791078 0.26919827 0.9102568 0.92039007 0.39723593 0.11344085 0.39334303 0.7810108
0.82982194 0.72046775 0.81491953 0.97611064 0.9220176 0.9489468 1.1453947 1.140561
0.5662563 0.31693873 0.6646202 0.1982316 -0.0987739 0.39338785 0.4833858 -0.029783316
-0.20355864 0.33846027 0.89023226 0.7854751 0.29783666 0.12590538 0.40583795 0.68072355
0.68107426 0.64630216 0.7919619 0.92102647 0.89579046 0.97883713 1.1366493 1.042935
0.5507521 0.31615904 0.7748979 0.10426442 -0.008227949 0.55008185 0.44941822 -0.12691776
-0.18095453 0.3837361 0.7917869 0.6069647 0.2398696 0.22701375 0.49784166 0.6406443
0.58299184 0.59416044 0.73985136 0.8198328 0.86329126 1.0120804 1.1122274 0.9901359
0.5800373 0.2238522 0.7801435 -0.05614112 -0.02025557 0.5282161 0.2513192 -0.29075453
-0.14221619 0.4719653 0.7359985 0.46423984 0.19393556 0.30747476 0.5686666 0.62812066
0.566507 0.63055634 0.74367875 0.7468969 0.83925694 1.0117141 1.0416652 1.00923
0.6294962 0.15290993 0.7882576 -0.17436469 -0.038731076 0.45307428 0.032620523 -0.41381595
-0.024166264 0.66118443 0.7922249 0.40869376 0.16345088 0.32900104 0.56384385 0.58429277
0.56800824 0.69881374 0.77485013 0.70040345 0.83031946 1.0082437 0.94457245 1.0440894
0.62134975 0.16925502 0.895777 -0.15234458 0.060282696 0.50147575 -0.035239328 -0.42777008
0.10961052 0.81307614 0.82527596 0.35480976 0.12390787 0.3149007 0.52177405 0.5237343

offset f8 [3]
00000000: 0100 00a0 6d21 a5bf c5ff ffff ff4d e8be
00000010: 0000 3808 86eb b13f
-0.04127066209912301 -1.1589378118514915e-05 0.07000005436566425

weights f4 [13824]
00000000: 2dbd a33f 170d 9a3f 36dd a53f b9d8 9a3f
00000010: 0b82 873f 80f6 b23f a234 bc3f 0ba4 833f
00000020: eef7 453f 61ed 813f a03d a13f 3f50 8c3f
00000030: 7b8b 433f 5f93 333f 5ec5 6a3f 6dfe 853f
00000040: 9904 6a3f c7c7 423f b0ad 533f 813d 733f
00000050: 2d26 6b3f abd9 6c3f 000f 723f 1c59 7c3f
00000060: 5d78 8f3f d7e6 903f fed0 903f bd88 a43f
00000070: fb17 7e3f 7875 9c3f 43a7 c53f cb77 a33f
00000080: 81be 4e3f a2e9 423f 4244 853f 411d 943f
00000090: 5950 793f 9589 443f 3ebb 3f3f 4790 533f
000000a0: 01cf 583f 0244 563f ddcf 5e3f d79a 5f3f
000000b0: b1fd 513f 901c 623f 8f6f 743f 2915 7f3f
000000c0: a098 963f 6b8a 9a3f 80f2 8a3f e24d a23f
000000d0: 3d51 5b3f 592e 4c3f 7ccf 983f 9746 a73f
000000e0: e748 7b3f b878 303f aaee 323f 63e5 563f
000000f0: b4fd 643f 48dd 5b3f 8ff2 4e3f 70ee 3e3f
00000100: 629e 2a3f 5a62 253f 9639 3a3f e8b5 4e3f
00000110: db8f 4f3f 07da 503f 756d 4e3f bf5a 6c3f
00000120: 8b90 873f fd02 813f 3a1f 643f 8ec1 9d3f
00000130: 73b5 8c3f a886 723f fb75 973f e8d0 b23f
00000140: 4518 a13f 49ed 743f 0fb2 443f 9191 393f
00000150: ce1e 3d3f 94dc 473f c2fc 573f f7a0 5e3f
00000160: 5a6d 513f c88d 3f3f 3b9b 3c3f 79e4 433f
00000170: d330 4d3f 4597 593f c069 563f 4681 5a3f
00000180: 5cf4 813f 606b 783f b3d9 503f 8558 883f
00000190: b478 893f fdfa 5b3f 54ad 613f 12f5 853f
000001a0: a704 8b3f 41a0 813f 8fcc 703f 3a7a 5c3f
000001b0: 55f5 3c3f 99bd 223f a863 233f 69f8 373f
000001c0: 6fac 463f eaa1 443f 4ec0 3a3f 04e8 323f
000001d0: 9cb9 373f 80c8 4b3f 9e3a 543f cf9f 4f3f
000001e0: 2f73 723f a5d2 7a3f 1c01 5e3f 3290 733f
000001f0: d55b 7a3f e5de 493f 06a7 3e3f 459c 543f
00000200: 4e0e 5c3f 3858 5d3f 5d24 6d3f 5e0c 753f
00000210: 1a73 573f e76b 233f e5ba 033f 7b5e 093f
00000220: 9717 1f3f 08e8 2b3f faa4 2b3f cdeb 263f
00000230: 4a27 2a3f 566e 3c3f ce21 4c3f ac7b 573f
00000240: 5ad3 593f 8bbb 633f a502 5f3f d2a2 5f3f
00000250: 3875 653f 6473 4f3f 7b6d 5c3f 0254 6e3f
00000260: 39e5 543f ea70 333f 80a4 3d3f 05c8 613f
00000270: 90a2 693f f30a 493f 5399 243f a1c8 193f
00000280: b31d 213f 6be1 273f 5cdb 2b3f f43d 323f
00000290: 80cc 393f 2b19 443f 81b9 493f d31e 623f
000002a0: eb74 4d3f 2030 473f f96e 4f3f 7b6d 4a3f
000002b0: 75e0 4a3f 024f 463f c532 6e3f 7777 853f
000002c0: ae93 5f3f eeda 1b3f 3282 0f3f 00ff 3a3f
000002d0: bd91 613f 5ec1 613f 6348 4f3f 49ab 433f
000002e0: 34ef 3c3f 0fb1 323f 907a 2e3f c066 393f
000002f0: ce1a 463f 4a26 4c3f 9caf 423f c420 593f
00000300: d063 503f 9125 3f3f 86a1 453f 05c1 3e3f
00000310: e769 383f 7b9b 2e3f 21dc 533f dae5 763f
00000320: 187a 583f 89dc 1a3f f59c 063f 80f5 233f
00000330: a6f0 423f f658 473f 4c4a 403f 6c87 3e3f
00000340: b4cb 393f bfaf 293f c0ed 1d3f df1e 263f
00000350: 3728 343f 10bb 3d3f cf80 323f 489f 423f
00000360: c0f7 4d3f 13ec 413f f67d 423f 5937 3d3f
00000370: 4d13 3b3f 4040 233f 7b1b 2b3f 8c38 463f
00000380: 6f6c 453f 9ab2 2d3f 501d 223f 957c 253f
00000390: 4518 203f 0627 0e3f 8ed1 043f 7d54 0d3f
000003a0: 5c79 163f 5e9e 113f 7714 0a3f ef24 0f3f
000003b0: 5dd3 183f 38bf 263f 94cb 263f 3f0c 373f
000003c0: 6f08 393f 6043 3a3f 87b4 353f 76c7 353f
000003d0: 983f 473f 50ed 2a3f 3ebf 133f 64b7 213f
000003e0: 2e26 3b3f baf3 453f 58f4 3e3f 8c47 293f
000003f0: 830f 0a3f 0612 e03e d521 d53e 25a9 ef3e
1.2792107 1.2035245 1.2958133 1.2097389 1.0586561 1.3981476 1.4703562 1.0284437
0.77331436 1.0150567 1.2596931 1.0961989 0.76384705 0.70146745 0.9170741 1.046827
0.91413265 0.76086086 0.826869 0.9501572 0.91855127 0.92519635 0.9455414 0.9857347
1.1208607 1.1320447 1.1313779 1.2854229 0.9925534 1.2223349 1.5441669 1.2770933
0.80759436 0.76137745 1.0411456 1.1571428 0.97388226 0.76772434 0.74895084 0.82642025
0.8469086 0.8369752 0.87035924 0.8734564 0.8202773 0.8832483 0.95482725 0.9964166
1.1765327 1.2073492 1.0855255 1.2680018 0.85670835 0.7975822 1.1938319 1.3068417
0.98158115 0.689342 0.6989542 0.83943766 0.8944962 0.85884523 0.80838865 0.74582577
0.66647923 0.646032 0.7274412 0.80746317 0.8107888 0.81582683 0.8063577 0.9232597
1.0590986 1.0079037 0.8911015 1.2324693 1.0992874 0.9473672 1.183288 1.3970003
1.2585531 0.9567457 0.76834196 0.7248774 0.7387513 0.7807095 0.8437005 0.8696436
0.8180748 0.74825716 0.7367436 0.76520497 0.80152625 0.84996444 0.8375511 0.85353506
1.0152698 0.9703884 0.8158218 1.0652014 1.0739961 0.8592985 0.881551 1.0465415
1.0860795 1.0127031 0.9406213 0.86124 0.73811847 0.63570553 0.6382394 0.7186342
0.7760686 0.7680956 0.72949684 0.6988528 0.7176759 0.79602814 0.8290194 0.81103224
0.94707006 0.9797767 0.8672044 0.951419 0.97796375 0.78855735 0.7447361 0.8305095
0.8595933 0.86462736 0.9263361 0.95721996 0.84160006 0.6383652 0.51457053 0.5365979
0.6214537 0.67150927 0.6704861 0.65203553 0.664662 0.7360586 0.7973908 0.84173083
0.8508812 0.8895804 0.8711341 0.8735782 0.89631987 0.8103545 0.86104554 0.93096936
0.83162266 0.7009417 0.7407913 0.8819583 0.91263676 0.7853233 0.64296454 0.6007176
0.6293594 0.65578336 0.6713159 0.6962578 0.7257767 0.76600903 0.7879868 0.88328284
0.8025653 0.7780781 0.81028706 0.79073304 0.79248744 0.77464306 0.9304622 1.0427083
0.87334716 0.60880935 0.5605804 0.7304535 0.88113004 0.8818568 0.8096983 0.76433235
0.73802495 0.6980142 0.68155766 0.7242241 0.7738465 0.79745924 0.7604921 0.8481562
0.814023 0.74666697 0.7719959 0.74513274 0.72036594 0.68205994 0.82757765 0.96444476
0.845613 0.6049276 0.5258325 0.6404648 0.7614845 0.7787012 0.7511337 0.7442539
0.7257645 0.6628379 0.616909 0.64890856 0.70373863 0.7411356 0.69727796 0.76024294
0.8045616 0.75750846 0.7597345 0.7391258 0.73076326 0.6376991 0.66838807 0.77430034
0.7711858 0.6785065 0.6332598 0.6464322 0.6253703 0.55528295 0.51882255 0.55207044
0.5877893 0.56882274 0.53937477 0.5591573 0.59697515 0.65135527 0.65154386 0.7150306
0.72278494 0.72759056 0.7097859 0.7100748 0.7783141 0.6676836 0.5771369 0.63170457
0.7310513 0.7732502 0.7459159 0.66124797 0.5392992 0.4376375 0.41627374 0.46808735

offset f8 [3]
00000000: 23f8 ffff ff45 dcbe ffff ff6f 690a a3bf
00000010: ffff ff4f 2389 b1bf
-6.740912795065128e-06 -0.037188811227679246 -0.06849880889058112

weights f4 [13824]
00000000: a825 6e3f be4a 683f caf6 333f 08f4 483f
00000010: a59d 433f baac 443f fb15 303f 8df9 1b3f
00000020: 92eb 243f 3373 333f d5a5 2d3f e0e9 233f
00000030: 9bfe 2d3f 26ca 413f 2fa8 473f 6688 423f
00000040: 9ff3 493f 2b18 633f 0230 783f f20d 7f3f
00000050: 0491 883f ec4e 973f f61b 8d3f bea8 a53f
00000060: e75d 633f 1878 413f 5b38 673f 6936 3b3f
00000070: 3fe8 383f 6710 4b3f 1c48 3b3f 9ac8 233f
00000080: 6bf8 213f 4dc7 283f bcf5 293f 0017 2c3f
00000090: 58e1 313f 55f1 313f 0b1c 2f3f ffd4 3c3f
000000a0: 0d52 5d3f 433a 723f 3814 693f a6e9 663f
000000b0: b86d 893f 766c 993f 46fa 8f3f 7a7a 9a3f
000000c0: 2957 793f 5801 563f c058 633f b39f 303f
000000d0: 06b9 203f 60d0 223f f7da 143f 03a8 083f
000000e0: 007d 0d3f 9922 173f d337 1d3f c996 253f
000000f0: 7333 303f d36a 353f 918a 393f 4fec 493f
00000100: 3560 5f3f 270d 5d3f f463 433f f1ae 453f
00000110: e468 713f fe2b 7f3f 751d a03f bd99 a23f
00000120: ad3f 503f 1f99 333f 15e6 363f 5eb3 353f
00000130: fce6 3b3f d9e7 403f 272f 373f adf6 263f
00000140: a3c4 173f a27e 083f 79e8 ff3e 5366 083f
00000150: ba34 1c3f 5d2d 2b3f 47f7 323f 4c17 413f
00000160: 85b3 583f 83e3 6a3f 1289 793f 7636 903f
00000170: 4795 a33f 39e7 943f ff94 ae3f 81f5 903f
00000180: a7ce 7b3f 2356 683f a217 6c3f 5c7d 613f
00000190: e5ae 503f 9448 493f 041e 463f 751f 453f
000001a0: 3a97 443f f9df 403f d341 3e3f b6e8 423f
000001b0: 1797 483f ed40 433f 59c0 353f e3d0 323f
000001c0: 6445 443f 6341 5e3f d7e1 773f fb65 8b3f
000001d0: 4a5a 8d3f 7551 5d3f 681d 813f 60b3 873f
000001e0: 8f8e 7d3f 3f51 5d3f 15b8 5d3f 12f3 333f
000001f0: 872e 103f 322c 063f b6b1 053f 6b1f 0a3f
00000200: 50e8 143f e601 213f a129 2b3f ca7f 343f
00000210: dbd4 3a3f 83d3 393f f9f3 343f fad4 363f
00000220: 8bb3 413f 69fd 493f 912c 4d3f 3497 5b3f
00000230: 9c2b 693f d645 5e3f a67f 8d3f e244 b73f
00000240: a52d 4d3f e5de 213f c33b 313f 5759 153f
00000250: 1a9b 0b3f 2dbc 123f d0e0 0d3f bd14 023f
00000260: 34f0 fa3e 56d1 fa3e ff20 f73e 58dc f73e
00000270: fadb 063f c37e 1e3f 0615 3d3f db56 583f
00000280: ddf4 633f ede9 593f 1c4e 4d3f de01 653f
00000290: 226a 8f3f b98c a53f dcbd b53f 7514 c73f
000002a0: 08ca 503f 8e0d 3e3f 3a13 513f 6860 553f
000002b0: eb8e 683f 7e3e 733f 08ce 613f 1fe7 493f
000002c0: 5137 3d3f 6822 323f d510 1e3f b4be 0a3f
000002d0: 1435 0b3f ddda 253f 2d90 4d3f 28cd 6c3f
000002e0: 7615 753f d59e 693f e9b0 653f b84a 863f
000002f0: cd1e a83f 1272 b63f 702b a33f 6ec1 943f
00000300: afa4 843f 1b33 8d3f 5091 763f d2a2 793f
00000310: 0750 813f 4f27 713f 561d 533f 3e50 4a3f
00000320: f6a8 583f c4e6 623f 4e41 593f ea41 473f
00000330: f648 3f3f 733d 443f c3eb 4a3f f1c9 4b3f
00000340: e963 4c3f 691c 563f a4e3 6c3f ddc2 873f
00000350: 364b 943f 7946 893f a283 5a3f 1985 563f
00000360: d8a8 823f f899 913f 4612 333f e35b 283f
00000370: ae50 1b3f 6731 d53e 0902 963e 8093 ba3e
00000380: 31a9 093f b199 2b3f cb18 3c3f 1dc5 483f
00000390: 5d61 543f 3528 503f 0d1d 343f d307 153f
000003a0: d8cf 163f 1ed2 413f b3cd 703f 96bd 7a3f
000003b0: a0ca 5e3f 1e30 393f 7594 3b3f 3f99 713f
000003c0: 4960 2b3f 7388 493f aa82 a63e 2275 bf3e
000003d0: c021 bb3e 941b 343e 412e cb3d 3115 4f3e
000003e0: b367 9f3e 3cfd ab3e 4d2c bd3e abe1 013f
000003f0: a78f 2f3f 8573 3f3f 024b 243f 1edc 033f
0.9302621 0.9073905 0.70298445 0.7849736 0.7641242 0.7682606 0.6878354 0.6092766
0.6442195 0.70097655 0.67831165 0.6402874 0.6796662 0.7569908 0.77991 0.7598938
0.7888736 0.8870875 0.96948254 0.99630654 1.0669255 1.182096 1.1024158 1.2942121
0.8881516 0.75573874 0.90320367 0.731299 0.7222938 0.79321903 0.73156905 0.6397797
0.6326968 0.6592911 0.66390586 0.67222595 0.6948447 0.6950887 0.68402165 0.73762506
0.86453325 0.9462015 0.91046476 0.9020027 1.0736609 1.1986225 1.1248252 1.2068627
0.9739862 0.835958 0.88807297 0.6899368 0.62782323 0.63599205 0.58146614 0.53381366
0.5526886 0.59037167 0.61413306 0.64683205 0.68828505 0.70866126 0.7247706 0.78876203
0.87256175 0.86348194 0.7632439 0.77220064 0.94300675 0.996765 1.250899 1.2703167
0.8134716 0.7015552 0.7144483 0.7097682 0.7339933 0.7535377 0.71556324 0.6522015
0.5928442 0.53318226 0.4998205 0.53281134 0.61017954 0.66866094 0.69908565 0.75426173
0.84648925 0.91753405 0.9747478 1.126662 1.2779931 1.1633064 1.363922 1.1324922
0.983622 0.90756434 0.9222356 0.8808191 0.8151687 0.7862637 0.7738955 0.77001125
0.76793253 0.75341755 0.7431919 0.7613634 0.78355545 0.76270944 0.70996624 0.69849986
0.7666838 0.8681852 0.9682898 1.0890497 1.1043179 0.8645242 1.0087099 1.0601616
0.9904565 0.86452097 0.8660901 0.7029277 0.56320995 0.52411187 0.5222429 0.5395419
0.5816698 0.6289352 0.66860396 0.7050749 0.7298104 0.72588366 0.7068477 0.71418726
0.75664586 0.789023 0.8014613 0.8577759 0.9108217 0.8682531 1.105458 1.4317896
0.80147773 0.63230735 0.69231814 0.58339447 0.5453354 0.57318383 0.5542116 0.50812894
0.49011385 0.48987836 0.48267362 0.48410296 0.5267941 0.61912173 0.73860204 0.8450753
0.89045507 0.8512257 0.8019731 0.89455974 1.1204264 1.293357 1.4198565 1.5553118
0.81558275 0.7423943 0.8166996 0.8335023 0.90843076 0.9501723 0.88205004 0.7886829
0.7391253 0.6958375 0.61744434 0.5419724 0.54377866 0.64787084 0.8029812 0.92500544
0.9573587 0.91257983 0.8972307 1.0491552 1.31344 1.4253561 1.2747631 1.162153
1.0362757 1.1031221 0.9631548 0.9751407 1.0102547 0.94200605 0.8246664 0.7902869
0.84632814 0.8863337 0.8486527 0.7783495 0.74720705 0.76656264 0.79265994 0.79605013
0.7983995 0.836371 0.9253485 1.0606343 1.1585453 1.0724632 0.85357106 0.8379684
1.0207777 1.1375113 0.6994976 0.6576521 0.6066998 0.41639253 0.29298428 0.3644066
0.5377379 0.6703139 0.7347533 0.7842577 0.82961065 0.8131135 0.7035683 0.58215064
0.58910894 0.7571124 0.9406387 0.97945535 0.8702793 0.72339046 0.732734 0.9437446
0.66943794 0.7872383 0.32521564 0.37394053 0.36549187 0.17588645 0.099209316 0.20222928
0.31133804 0.3359164 0.3694786 0.50734967 0.6857857 0.74785644 0.6417695 0.5150775

offset f8 [3]
00000000: d808 0000 0030 ecbe 0100 0028 f9c9 b1bf
00000010: 0000 0080 480b a33f
-1.3440847396854421e-05 -0.06948811747133733 0.03719545900821686

weights f4 [13824]
00000000: 8864 363f 254c 423f 7fe9 1f3f 6017 253f
00000010: 2972 1b3f 9507 233f 1f62 323f ab7c 343f
00000020: bc29 283f 7c16 1e3f 0d89 243f 01aa 353f
00000030: b5f4 3e3f b670 3a3f 7787 363f baaa 403f
00000040: 00d0 523f d32c 603f 3787 6b3f b447 7e3f
00000050: 5158 873f 6f2f 883f 2b5e 973f 62e9 9c3f
00000060: 766d 393f 0762 373f c8f7 343f be3b 1e3f
00000070: d8b9 163f 25b9 213f 3b86 213f a194 133f
00000080: 0002 0e3f 852a 193f fd15 283f 9c44 2c3f
00000090: ce1f 263f 22ee 233f dcc5 313f 99e7 493f
000000a0: 745a 583f f0e4 513f 2fdc 453f 4d6c 523f
000000b0: 78ec 7c3f 11e2 8b3f 645a 8d3f 1783 963f
000000c0: 1f4f 0a3f b311 ca3e 51db 1e3f e15f d23e
000000d0: 2522 b03e c0c5 db3e 3c1e fa3e e310 fb3e
000000e0: 1def 043f a691 1a3f afe5 2e3f d8c4 303f
000000f0: 4db8 1f3f 2a7d 0c3f 0a10 0a3f 8147 1d3f
00000100: 9573 3a3f 70d7 513f 8387 5e3f 01ed 6a3f
00000110: f14d 7f3f 0043 833f b533 843f 918f 9b3f
00000120: 3e4e 433f c0d4 c23e 1e81 123f 65e1 be3e
00000130: f232 d93e 110f 163f 9eea 1b3f dfe2 003f
00000140: a923 df3e a710 f33e 5adb 0b3f 6f3a 0f3f
00000150: f194 013f 8e9b e83e 08c3 f13e 3602 113f
00000160: 167f 2f3f b34b 453f 942a 4e3f ad38 553f
00000170: 913e 683f 5efd 7a3f ae27 7c3f 6af1 883f
00000180: 3d54 293f dd0f db3e b67e 033f da51 b83e
00000190: 5bff cb3e ae3a 043f c082 fb3e 35d3 ad3e
000001a0: a884 843e cd9c a63e 3457 e03e 8789 fb3e
000001b0: 71c8 f83e df8c f83e 2904 073f f288 193f
000001c0: e878 2c3f 7714 3a3f dd1e 3f3f 7118 413f
000001d0: 4ff0 503f deb2 703f 87b3 7b3f ea9f 853f
000001e0: bb0e aa3e d972 f43e a007 e23e d099 b53e
000001f0: 0106 983e 246d b73e 090d bd3e 2a89 8b3e
00000200: 1168 763e 2afc ae3e ad67 e93e d51a fa3e
00000210: 103e f33e 9cc7 f43e 81db fd3e 49de 013f
00000220: 347c 093f 00d5 1c3f 39f8 313f ed4a 3d3f
00000230: fc52 4e3f 8d25 763f e839 863f 708a 8f3f
00000240: acc4 383e 67d2 183f 210e c53e b171 c03e
00000250: 42a9 793e 01a3 963e 062a bf3e d6cc a73e
00000260: 7412 a23e 5bdc d23e e2fa f43e cc01 e33e
00000270: 8cea c83e 3cc6 ca3e 5348 d23e 65db cb3e
00000280: 0cf1 d93e f64a 0e3f 41cd 353f 7882 473f
00000290: 7d8c 533f b257 743f 1593 823f 2056 893f
000002a0: 732b 853e e4ce 333f 3faa 8e3e 3bd1 b03e
000002b0: bef9 4b3e 4204 8c3e daed c73e 04fb ae3e
000002c0: 29b9 a23e 302a ce3e 383a dd3e 33a2 af3e
000002d0: 467e 8c3e c7bf a13e bf29 c53e 9804 d03e
000002e0: 50fd e73e 4b13 1a3f 5f72 413f a972 4a3f
000002f0: 307a 4b3f 1420 5f3f 2ab0 643f e40a 733f
00000300: be67 bb3e e179 2e3f 604e 063e 3ae5 873e
00000310: 38c0 0f3e d814 7f3e 01d3 bd3e 0f4d 923e
00000320: 37b7 773e cbba ab3e efb9 b93e dd4c 823e
00000330: f26f 433e 1e74 923e 78ca db3e 2002 ff3e
00000340: ff39 0b3f ff17 263f 63f0 3c3f c8d3 393f
00000350: 0583 393f 0adf 4b3f d7a9 553f ed16 723f
00000360: ac78 c63e 1edf 0d3f 4d45 8c3d fc10 7d3e
00000370: 1e93 fb3d fa52 803e 1105 bb3e e92f 7a3e
00000380: 69a3 3a3e 6b07 943e 850d ab3e 49ee 6c3e
00000390: c982 343e e895 993e d14e f63e a674 103f
000003a0: 6073 133f 2fed 1b3f 49d3 233f e50c 233f
000003b0: ecb2 333f 88ae 513f cd8f 6d3f 1dab 883f
000003c0: 1090 c83e d766 d73e 15c4 213e a430 ab3e
000003d0: 8b23 263e 4722 903e 7ab8 c83e a3ae 823e
000003e0: 286f 373e a8ef 943e 1d34 b83e 808a 8f3e
000003f0: a48f 6a3e a8ff ac3e dec2 fe3e 4dbf 0d3f
0.7124715 0.7589744 0.6246566 0.6448879 0.6072107 0.63683444 0.6968097 0.7050273
0.6568868 0.6175306 0.6427162 0.7096253 0.74592143 0.72828233 0.7130045 0.7526051
0.8234863 0.87568396 0.92003196 0.9932816 1.0573827 1.0639476 1.1825613 1.2258723
0.7243265 0.7163395 0.70690584 0.6180991 0.58877325 0.63173133 0.63095444 0.57648665
0.554718 0.59830505 0.6565855 0.6729219 0.6489228 0.64035237 0.69442534 0.78869015
0.8451302 0.81989956 0.772891 0.82196504 0.9879832 1.0928365 1.104321 1.1758755
0.5402698 0.39466628 0.620534 0.41088775 0.3440105 0.4292431 0.48851192 0.4903632
0.5192736 0.6037849 0.6831922 0.6905036 0.62390596 0.54878485 0.53930724 0.6143723
0.72832614 0.81969357 0.86925524 0.9176789 0.99728304 1.0254822 1.032828 1.2153188
0.76291263 0.3805294 0.5722827 0.37281337 0.4242168 0.5861674 0.6090487 0.5034618
0.43581894 0.47473642 0.5463158 0.5594854 0.5061789 0.4543118 0.4721911 0.56644
0.6855329 0.7706863 0.8053372 0.83289605 0.9072047 0.9804286 0.98498046 1.0698674
0.6614416 0.4278554 0.5136522 0.35999948 0.39843258 0.5165204 0.49123192 0.339502
0.2588246 0.32541505 0.4381653 0.49128363 0.48590425 0.48544976 0.5274072 0.59974587
0.6737199 0.72687477 0.7465647 0.7542792 0.8161668 0.9402293 0.9832081 1.0439427
0.33214363 0.47743872 0.44146442 0.35468912 0.2969208 0.35825455 0.36924008 0.27253085
0.24063136 0.3417676 0.4558691 0.48848596 0.47508287 0.4780854 0.4958153 0.50729805
0.53705144 0.6126251 0.6951938 0.7394245 0.80595374 0.9615105 1.0486422 1.1214123
0.18043774 0.5969605 0.38487342 0.3758674 0.24380973 0.29421237 0.3733675 0.32773465
0.31654704 0.41183743 0.47847658 0.44337308 0.39241445 0.39604366 0.41070804 0.39815822
0.42566717 0.5558313 0.7101632 0.77933455 0.82636243 0.9544631 1.0201136 1.0729408
0.26009712 0.70237565 0.27864262 0.3453463 0.19919488 0.27346998 0.39048654 0.34175885
0.3178189 0.40266562 0.4320848 0.34303436 0.2744009 0.31591627 0.38508412 0.40628505
0.4531045 0.6018569 0.7556514 0.7908121 0.7948332 0.8715832 0.89331305 0.9493849
0.36602587 0.6815472 0.13115835 0.26542073 0.1403817 0.24910295 0.37075046 0.28574416
0.24190985 0.3354095 0.3627467 0.25449267 0.19085672 0.28604215 0.4292791 0.4980631
0.5438537 0.64880365 0.738043 0.7258878 0.72465545 0.79637206 0.8346228 0.9456623
0.3876394 0.55418575 0.068491556 0.2471351 0.1228392 0.25063306 0.36527303 0.24432339
0.18226399 0.2891191 0.33408752 0.23137774 0.17628016 0.29997182 0.48107007 0.5642799
0.57597923 0.6090879 0.6399427 0.6369155 0.7019489 0.8190694 0.9279755 1.067722
0.3917241 0.42070648 0.15797456 0.33435547 0.16224496 0.28151152 0.39203244 0.25523862
0.17913496 0.29089093 0.3597726 0.28035355 0.22906357 0.337888 0.49758047 0.55370027

offset f8 [3]
00000000: 0000 0040 b81d a53f 0000 00a0 bfb2 9c3f
00000010: 0000 00c0 43e5 a0bf
0.04124236851930618 0.02802562154829502 -0.032999150454998016

weights f4 [13824]
00000000: cc47 9b3f d6be 973f 4017 933f f8b1 8f3f
00000010: 9020 883f 8466 863f 9d97 833f b600 7a3f
00000020: 50b0 7a3f aa31 873f 37de 8b3f b2e3 803f
00000030: 116b 663f b480 713f bfd6 903f f1dd a03f
00000040: f043 973f 943a 853f 6cd6 863f 9f7c 993f
00000050: f458 9f3f da4f 923f 8c8f a03f 69b8 a63f
00000060: ba6d 973f 9e92 8a3f 792c 8c3f 4bc3 813f
00000070: b205 783f c2c6 803f 43d3 803f f340 6d3f
00000080: 6cae 5d3f dab2 683f 3584 803f 12d9 833f
00000090: a65c 733f 6b40 5d3f 2212 653f 53ac 853f
000000a0: 728e 963f 3e03 953f b342 873f 58e5 853f
000000b0: 4fd5 983f 1d5a a03f b948 953f c25c 9c3f
000000c0: d425 8d3f 4750 843f 47e2 813f cde5 703f
000000d0: 39e6 693f 6dae 703f 1284 723f 7ff1 623f
000000e0: cbad 4d3f 66a8 493f 03e8 5c3f 4935 743f
000000f0: ea1c 773f fd50 633f eb32 533f 6818 643f
00000100: 0f7e 883f 10b5 963f 98b5 8b3f 94a5 713f
00000110: c814 823f ee76 9b3f 4aea 903f ddf3 9e3f
00000120: 8cce 883f 390d 7f3f a7f0 783f b5de 673f
00000130: 2896 593f e4eb 4f3f 6d74 4f3f 9546 4c3f
00000140: a11e 3e3f 8850 313f 3e26 373f 6c62 4e3f
00000150: 3299 603f 52ea 583f 7140 3f3f a077 383f
00000160: c395 603f dda9 903f f5d4 9e3f 16c0 8e3f
00000170: 5791 803f e006 8e3f 7c02 8c3f 6d5b 933f
00000180: 8ba7 7f3f 648f 5c3f ba93 663f 9cfa 5a3f
00000190: f297 493f d71b 373f 8300 383f 4624 433f
000001a0: 35fd 403f a137 2f3f 140d 233f 87a1 2f3f
000001b0: 9748 4e3f e791 613f 5502 543f 37e5 343f
000001c0: 8d99 2f3f 6319 5c3f 7409 8c3f df19 933f
000001d0: 6e80 853f cb78 883f f60b 953f 4d9e 8d3f
000001e0: 5a4d 653f f767 3f3f b8d9 563f f9d8 503f
000001f0: bcb2 433f d221 2f3f 9986 2a3f 16c1 363f
00000200: cfc5 3b3f 1ad7 2a3f 52b4 113f c604 0d3f
00000210: 74ee 283f d50b 503f 8ab5 5d3f 6ad7 443f
00000220: 5fa2 233f 61ff 283f e96e 5c3f 0291 843f
00000230: 5853 823f 34b5 7f3f a4c0 983f 25d6 923f
00000240: 1bfc 583f 5579 463f 0d1b 513f cf9b 453f
00000250: 38ef 3b3f c88c 253f 4725 133f 2bdd 143f
00000260: ccca 1e3f e439 1a3f 75ed 033f 8f82 e53e
00000270: 2be8 fe3e c539 283f fb3b 4f3f cfbb 563f
00000280: 544d 403f deed 2f3f 861c 473f e172 753f
00000290: 1b42 823f 2611 733f 93c4 8c3f ae4e 913f
000002a0: c027 573f 8afb 593f 02ca 433f c3fe 2c3f
000002b0: 8988 283f c3dc 153f eb6e f43e 8fc7 e43e
000002c0: fb19 023f 9850 103f 8e2f 083f 454d e33e
000002d0: b84c d03e d129 fb3e c22d 283f a0a7 4a3f
000002e0: 6820 4f3f c9ef 3f3f 370b 433f 41dc 6a3f
000002f0: dbdf 853f a249 763f c3d1 7b3f 5693 863f
00000300: 0816 4c3f 2e06 533f 7232 233f ea52 073f
00000310: 8bf9 0c3f 4a55 063f 494a d93e d4a7 c13e
00000320: 6143 e53e 62a3 0d3f a03e 143f 896d ff3e
00000330: d10d ca3e ffbb bf3e b67d f33e 52ee 203f
00000340: 4a59 373f e3c5 323f a343 303f 0b1c 533f
00000350: c732 813f be54 7d3f 2806 793f 9b34 833f
00000360: 77d9 3a3f 7cea 343f e425 063f 2d8a d73e
00000370: 16bb f03e e031 f93e 1395 d03e d71d af3e
00000380: 23e4 c03e a762 f33e f76b 093f 887b 003f
00000390: 4e21 cf3e 1a6a ad3e 5062 c03e 9ffd fd3e
000003a0: c974 193f 852b 1d3f 81f0 1a3f af39 353f
000003b0: 45bd 643f 7bcd 783f 5f37 873f a83a 8d3f
000003c0: a7d1 343f 2005 1f3f 4a39 0a3f 6915 de3e
000003d0: 3d58 ec3e 8d51 f73e 8ff2 d13e b05a 9e3e
000003e0: 3593 8a3e 080c a03e b233 c43e f44d d63e
000003f0: cf6a cd3e fff8 bf3e fdb7 cd3e a35c fc3e
1.2131286 1.1855114 1.149147 1.1226187 1.0634937 1.0500035 1.0280644 0.97657335
0.9792528 1.0562031 1.092719 1.0069487 0.9000712 0.9433701 1.1315535 1.2567731
1.1817608 1.0408502 1.0534186 1.1991156 1.2449021 1.1430619 1.2543807 1.3025028
1.1830361 1.0825994 1.0951072 1.0137724 0.9688369 1.0060656 1.0064472 0.9267723
0.8659427 0.90897906 1.0040346 1.030062 0.95063245 0.8642642 0.89480793 1.0443214
1.1762221 1.1641614 1.056723 1.0460615 1.1940097 1.25275 1.1662818 1.2215807
1.1027169 1.0336999 1.0147179 0.9410065 0.91366917 0.9401615 0.94732773 0.88649744
0.8034331 0.7877258 0.8629152 0.95393807 0.96528494 0.88795453 0.8249957 0.8909974
1.066347 1.1774006 1.0914793 0.9439328 1.0162592 1.214567 1.1321499 1.2418171
1.0688033 0.9962955 0.97242206 0.905742 0.84994745 0.81219316 0.81037027 0.797952
0.74265486 0.69263506 0.7154273 0.8061893 0.8773376 0.84732544 0.74707705 0.72057533
0.8772852 1.1301838 1.2408739 1.115237 1.0044354 1.1095848 1.0938258 1.1512276
0.99865025 0.86156297 0.9006916 0.8553865 0.78747475 0.71526855 0.7187578 0.76227224
0.75386363 0.6844426 0.6369183 0.68605846 0.80579513 0.88113254 0.8281606 0.70662254
0.68593675 0.8597624 1.0940385 1.149227 1.0429819 1.0661863 1.1644275 1.1063935
0.89571154 0.7476801 0.8392596 0.81581074 0.764446 0.6841098 0.6661163 0.71388376
0.73348707 0.6673447 0.5691577 0.5508541 0.6598885 0.81268054 0.8660513 0.76891196
0.63919634 0.6601468 0.86106735 1.0356753 1.0181684 0.9988587 1.1933789 1.1471602
0.8475968 0.7752889 0.816819 0.7719087 0.73411894 0.6466794 0.57478756 0.58149976
0.62028193 0.60244584 0.51534206 0.4482617 0.49786505 0.6571315 0.809509 0.83880323
0.75117993 0.6872233 0.777779 0.95878416 1.0176424 0.9494804 1.099749 1.1352136
0.8404503 0.85149443 0.76480114 0.67576236 0.65833336 0.5853998 0.47740874 0.446835
0.50820893 0.56372976 0.5319756 0.4439489 0.40683532 0.4905534 0.6569482 0.79162025
0.80908823 0.7497526 0.7618899 0.9174233 1.045894 0.96206105 0.98366946 1.0513713
0.79721117 0.82431304 0.6374885 0.5286089 0.5506827 0.5247389 0.42439488 0.37823355
0.4477797 0.5532743 0.5790806 0.49888256 0.39463666 0.37448117 0.47556847 0.6286365
0.7162062 0.698332 0.68853205 0.82464665 1.0093621 0.9895743 0.9727502 1.0250429
0.72988075 0.70670295 0.52401567 0.42097607 0.47017735 0.48670864 0.40738735 0.34202453
0.37674055 0.47536203 0.53680366 0.50188494 0.40455097 0.33870012 0.37575006 0.4960756
0.59943825 0.6139453 0.6052323 0.70791143 0.893513 0.9718854 1.0563773 1.1033525
0.70632404 0.62117195 0.53993666 0.4337571 0.4616107 0.48304406 0.4100537 0.30928564
0.27065435 0.3125918 0.3832069 0.4185635 0.4012055 0.37494656 0.40179434 0.49289426

offset f8 [3]
00000000: ffff ff1f 771f a5bf 0000 0050 00aa a13f
00000010: ffff ffdf 60b4 9c3f
-0.04125568643212318 0.034500131383538246 0.02803183905780315

weights f4 [13824]
00000000: 6102 7f3f c255 883f e0ca 6f3f 9db6 673f
00000010: 6767 893f 72fb 743f 139f 543f 2781 883f
00000020: 43bc a23f c3a7 7d3f bb53 1d3f 3d44 573f
00000030: e5e8 c13f 9129 e03f a68d a13f b327 4f3f
00000040: f962 7d3f a888 a93f 72ae 9b3f f634 853f
00000050: a4ca 993f 6319 923f f320 953f 410e 9c3f
00000060: a653 503f 7503 733f 43c6 5d3f 846f 633f
00000070: 0abd 863f 144d 5d3f f19f 413f 6ef0 883f
00000080: 34b3 a23f 5792 743f 679f 2c3f 7abc 863f
00000090: 2940 d33f 6fef c63f 63c7 5e3f d132 243f
000000a0: 95b0 933f 6ce9 b83f f725 843f 4543 533f
000000b0: d44b 9b3f e233 933f fcc6 903f a822 893f
000000c0: 10f5 773f de9a 653f 284f 3e3f a168 563f
000000d0: ded3 833f 6d5f 463f db1d 343f 8f68 8a3f
000000e0: 6ba4 983f 3c3c 373f 5351 db3e 4a8a 753f
000000f0: 66fd d33f ab20 c23f 70b0 483f 7d25 173f
00000100: 42e1 8e3f ee07 ab3f 30f8 673f 11f9 4b3f
00000110: f368 9a3f 2041 843f fd08 743f e3f7 973f
00000120: 1913 4f3f 51ce 5d3f e8b5 4d3f f641 5e3f
00000130: df8b 743f 32e7 193f 29be 1b3f d714 8d3f
00000140: 7cfc 973f 6cf0 213f e437 c23e be2a 803f
00000150: f28c d73f 5b5b b93f 6db4 333f 61fe 153f
00000160: eb34 8f3f d9d1 9f3f e801 4a3f 2c14 3b3f
00000170: 01dd 8f3f 124a 753f 172b 753f dad2 8e3f
00000180: bf46 2f3f 32d8 453f b945 443f 2989 503f
00000190: 008e 593f 4228 003f 2fa2 223f e97d 993f
000001a0: e4d2 993f 05ae 143f c69a d13e 8845 8f3f
000001b0: a8f1 db3f aa8c a93f 67d0 123f b586 173f
000001c0: 92c9 963f 73fc 9d3f 97d5 403f bd48 3e3f
000001d0: 8a02 893f e519 573f 3adf 773f 2d61 743f
000001e0: 0f4c 453f 2e90 3e3f 00a2 373f cd37 4e3f
000001f0: 2f66 523f d229 003f 66d5 363f 06ec 9c3f
00000200: 55b3 853f 56bb b13e dcab 9d3e 2917 923f
00000210: cf07 d33f 40a6 893f 20ac 9f3e 35bb ec3e
00000220: 9ff5 8a3f 8f04 873f c72d 173f 1f11 3b3f
00000230: 3f60 883f 1386 373f e935 6c3f 967d 593f
00000240: c9c0 593f 548e 383f 1369 283f 03bd 543f
00000250: 4a47 4c3f 7873 f13e d137 3c3f aa56 973f
00000260: 08c6 5a3f 913c 263e a9ac a83e b3b0 a83f
00000270: a34e de3f 309a 7c3f c740 5e3e b03e fd3e
00000280: 3107 903f 67e9 723f 1b3c e03e 9f41 373f
00000290: 7ace 8d3f bcb7 273f 7bd0 623f ab24 5e3f
000002a0: 5445 453f 20fd 2b3f ac1a 193f 1947 5c3f
000002b0: 3487 3e3f c2c8 cc3e c6c1 3b3f 6e18 963f
000002c0: ce25 463f ecdf 013e a50a f23e fa9d c73f
000002d0: aecf ee3f 46eb 743f 3d3a 543e af4a 233f
000002e0: f618 a83f 4bb1 803f 8f17 c33e 31ad 313f
000002f0: 2a6b 913f eeda 253f 8db9 603f 3ce2 6a3f
00000300: a809 233f adf5 283f e95f 133f cb0d 623f
00000310: 8856 303f 2d42 b43e d596 443f 8a83 9b3f
00000320: 9e7c 403f 101c c03d 87fb ff3e 34a8 cb3f
00000330: 3f25 e43f 1db4 413f 6b2a f83c c703 193f
00000340: 9fd9 af3f f135 863f 0571 b03e 1834 1c3f
00000350: 14c3 883f 648d 1f3f f3a3 563f a10e 5c3f
00000360: a6a1 1f3f 4c56 333f 0da9 153f 8e5b 603f
00000370: 3c66 263f 0ce0 b73e 56e5 533f fde4 9f3f
00000380: dcf1 363f 6dbf 443c 84cf cf3e b0e8 bc3f
00000390: db40 d03f ea4d 103f 08ad 3dbe 8ab6 c63e
000003a0: 0adf 9c3f e53a 7e3f ea94 a03e b375 013f
000003b0: 03c1 6f3f eb8a 133f 77f0 433f e426 383f
000003c0: 5974 3a3f 2038 393f 909a 173f 3176 553f
000003d0: b53f 223f b532 cf3e 5682 5c3f a4be 9d3f
000003e0: c86a 313f ef4b 433c 083d c93e 1bb5 b93f
000003f0: d0df d43f ed4e 2d3f 2c26 fbbd 11f9 913e
0.99613005 1.0651171 0.9366894 0.9051302 1.0734681 0.95696175 0.8305523 1.0664414
1.2713703 0.9908411 0.6145589 0.840885 1.5149199 1.7512685 1.2621353 0.8091995
0.98979145 1.3244829 1.2162611 1.0406787 1.2014966 1.1413997 1.165068 1.219185
0.8137764 0.9492715 0.8663065 0.88842034 1.052644 0.86445737 0.75634676 1.0698373
1.2710938 0.95535797 0.6743073 1.0526268 1.6503955 1.5541819 0.8702299 0.6414004
1.1538264 1.4446235 1.0324086 0.8252452 1.2132516 1.1500208 1.1310725 1.0713701
0.9685831 0.89689434 0.7433953 0.837534 1.0299032 0.7748936 0.70358056 1.0813159
1.1925176 0.71576285 0.42835483 0.9591414 1.6561706 1.516622 0.7839422 0.5904158
1.1162493 1.3361795 0.9061308 0.7967692 1.2063278 1.0332375 0.95326215 1.1872524
0.80888516 0.8664294 0.8035569 0.868194 0.95525926 0.601184 0.60837036 1.1021985
1.1873927 0.6325748 0.37933266 1.0013044 1.6839888 1.4481004 0.7019718 0.58591276
1.1188024 1.2485915 0.7890916 0.73077655 1.123932 0.9581615 0.95768875 1.1158097
0.68467325 0.7728301 0.7666889 0.8145929 0.849823 0.5006143 0.6352872 1.199155
1.2017484 0.5807803 0.40938395 1.1193094 1.7183123 1.3246052 0.57349247 0.5918992
1.1780264 1.2342666 0.7532591 0.7432974 1.07039 0.84023887 0.9682499 0.9546078
0.7706918 0.7443875 0.7173157 0.80553895 0.8218717 0.5006381 0.7141937 1.2259529
1.0445353 0.34713238 0.3079518 1.1413318 1.6486758 1.075386 0.31186008 0.46236578
1.0856208 1.0548266 0.59054226 0.73073 1.0654372 0.71688956 0.9226976 0.84957254
0.8505979 0.72092175 0.6578533 0.8310091 0.7979628 0.47158408 0.7352267 1.1823323
0.8545842 0.16234042 0.3294423 1.3178924 1.7367748 0.9867277 0.21704398 0.4946189
1.1252195 0.94887394 0.43795857 0.71584505 1.1078637 0.6551473 0.88599366 0.867747
0.7705891 0.67183113 0.59806323 0.86045986 0.74425054 0.39996916 0.7334255 1.1726205
0.77401435 0.12683076 0.47273746 1.5595086 1.8657129 0.956715 0.20725341 0.63785833
1.3132617 1.0054106 0.3810391 0.69404894 1.1360829 0.64787185 0.8778313 0.91751456
0.6368661 0.6599987 0.5756822 0.88302296 0.68882036 0.35206738 0.7679265 1.2149518
0.7519015 0.093803525 0.49996588 1.5910707 1.7823867 0.75665456 0.030293664 0.5977139
1.3738288 1.0485212 0.34461227 0.6101699 1.0684533 0.6232512 0.83843917 0.8595982
0.6235603 0.70053554 0.58461076 0.876397 0.6499975 0.35913122 0.82771814 1.2491757
0.714628 0.01200853 0.4058801 1.475851 1.6269792 0.5636889 -0.18523037 0.3881114
1.2255566 0.99308616 0.31363612 0.5057022 0.9365389 0.57633847 0.76538795 0.7193434
0.7283378 0.72351265 0.5922022 0.8338347 0.6337846 0.40468374 0.86136377 1.2323804
0.6930356 0.011919959 0.39304376 1.4508394 1.6630802 0.67698556 -0.1226314 0.28510335

offset f8 [3]
00000000: a301 0000 00c2 e2be 0000 0010 3f2f a33f
00000010: ffff ff1f 7778 babf
-8.944422006607765e-06 0.037469835951924324 -0.10340065509080885

weights f4 [13824]
00000000: 002c 7b3f b67b 8d3f d083 293f 55ac 2d3f
00000010: 7853 553f 6091 493f 83f9 313f 00e9 1d3f
00000020: 4f41 0e3f 02af 113f 2785 263f a13c 333f
00000030: f526 2a3f f5c1 193f dcae 143f 57ba 1c3f
00000040: d747 293f 2703 343f 43aa 3d3f 1ef2 4c3f
00000050: d8ed 593f f69e 4f3f 7765 6d3f d8fa 7b3f
00000060: 00ab 873f 57be 5f3f 84f2 663f 82ba 753f
00000070: e4e6 613f 14d7 323f c278 1e3f e27d 153f
00000080: ce6c 0d3f d3ae 163f 6844 2b3f 014f 2f3f
00000090: af44 1e3f 968b 103f cd84 143f ab15 1d3f
000000a0: 83ed 193f 8322 0d3f 43e2 073f a05a 223f
000000b0: 881d 603f f000 803f 63bd 4d3f 8e19 853f
000000c0: 7ae3 703f 3ca7 363f 5dce 873f 1eae 283f
000000d0: 0eb0 dd3e 3660 f93e 858a 183f 938b 023f
000000e0: 8f6c a13e 1b90 7b3e 83c0 a53e 530d c93e
000000f0: b0ec c13e a89a b43e 7507 c53e 3b9f f33e
00000100: 86f1 1a3f 3705 373f 25e5 2e3f 2759 073f
00000110: 9239 143f 307d 6a3f 3326 373f b867 573f
00000120: f57c 653f ff4c 2a3f 7225 883f 4229 003f
00000130: bb97 d93e 940e 1e3f 4867 2c3f f024 fa3e
00000140: 93bf 973e 3a54 ab3e d2c0 0a3f 5e45 2e3f
00000150: bbad 253f 3462 063f a175 d13e 52df af3e
00000160: 4dfa ca3e 9097 163f ee43 383f e540 163f
00000170: 831b ff3e d142 5e3f 8fc5 433f 3b4e 643f
00000180: 7738 6d3f 67c0 413f 0197 683f 53c7 cd3e
00000190: fe83 0c3f b15e 353f a8a1 1a3f 3421 be3e
000001a0: 73e9 733e 9194 a83e d7df 073f ee00 1d3f
000001b0: f017 043f ab98 c33e 4755 a03e d4f7 893e
000001c0: 5a3f 863e 5a4b d23e 3450 233f 4aa5 1e3f
000001d0: 798f e73e 172e 3a3f 085b 453f 5281 5b3f
000001e0: 7a3b 623f c587 553f f559 483f 4a70 d53e
000001f0: 058e 2e3f 1264 363f f1de 003f 0411 9b3e
00000200: 39d8 453e ad48 6f3e eb6c c23e 1fb2 d93e
00000210: e92f 903e fa2c 113e 4d3b 373e d8a5 8b3e
00000220: 2eff 883e f68f 9d3e c780 083f 9df0 233f
00000230: 8cf8 ec3e 8c09 1b3f b3f7 443f 273e 3a3f
00000240: 1a3a 533f 1269 523f ca20 343f a0bb eb3e
00000250: 2b05 333f 8dce 133f 60b3 bc3e 6997 843e
00000260: 1a48 003e cb72 a73d 1199 853e 994e d63e
00000270: 51e8 933e deda 893d 7fba cf3d ee5e 983e
00000280: 03a5 a13e 6ac6 733e 09a7 d23e ba78 223f
00000290: 7e6f 003f 55c1 073f 65e0 473f 6643 2a3f
000002a0: 870f 533f a64a 423f 6d11 223f af27 f83e
000002b0: 31e7 203f 2c03 c13e d6c3 763e 9df6 783e
000002c0: 7777 493d 1a3a c7bd 4616 253e 650f 023f
000002d0: af5e da3e 5621 ab3d 9392 343d 5b72 9d3e
000002e0: 2782 ba3e d1cd 3f3e 59ff 943e 941c 1b3f
000002f0: e8e6 073f de47 ec3e 2215 453f a9b6 313f
00000300: 20de 583f 3565 393f 566a 173f 6342 093f
00000310: 5791 1a3f 06cf 883e d6a6 683e a23a ad3e
00000320: c1c0 9c3d 58a4 4bbe 1d13 993d fcfe 093f
00000330: b84f f53e 72c6 1e3d 0825 2cbd 33c9 9c3e
00000340: 77d3 d73e 36d8 2f3e a889 553e 060c 173f
00000350: 186c 103f 2d44 cf3e 9101 3b3f 015a 3d3f
00000360: 6a69 563f b485 3e3f 56c1 173f a7db 1c3f
00000370: cd4e 273f 575d 8c3e 29f4 9d3e 7c95 013f
00000380: 433d 4f3e 8ddf 45be 97de 863c cf37 f73e
00000390: 07c6 ce3e 8116 aabd 24d2 17be 913d 963e
000003a0: e746 ef3e e725 333e a96a 2b3e 8eef 183f
000003b0: e115 1d3f f401 c83e 8708 323f 3c95 3e3f
000003c0: 15fe 503f 135e 483f 837a 1b3f f896 243f
000003d0: c0e9 303f a35c 953e 60c9 ac3e 8493 113f
000003e0: 5619 873e 2bd4 39be 5a53 02bd dfa6 cb3e
000003f0: aa58 9c3e ba68 36be 3d27 5fbe bfd9 873e
0.98114014 1.1053379 0.66216755 0.6784108 0.8333049 0.7873745 0.6952135 0.61683655
0.55568403 0.56907666 0.65046924 0.7001439 0.66465694 0.6006158 0.58079314 0.6122183
0.66125244 0.7031731 0.74087924 0.8005694 0.85128546 0.8110193 0.9273295 0.9842963
1.059906 0.8739981 0.902138 0.95987713 0.88242936 0.69859433 0.6190301 0.58395207
0.5524415 0.5886051 0.66901255 0.68479925 0.6182355 0.5646299 0.5801514 0.6136119
0.6012804 0.55130786 0.53079623 0.6341953 0.8754506 1.0000286 0.80367106 1.0398424
0.940971 0.7134893 1.0609852 0.6589068 0.43298382 0.48706216 0.59586364 0.50994223
0.31528136 0.2456669 0.32373437 0.39267978 0.3787589 0.35274243 0.38482252 0.4758242
0.60524786 0.7149233 0.68318397 0.5287041 0.57900345 0.9159727 0.7154266 0.8414264
0.89643794 0.66523737 1.0636427 0.50062954 0.42498574 0.61740994 0.67345095 0.48856306
0.29638347 0.33462697 0.5420047 0.68074596 0.64718217 0.52493596 0.40910056 0.34350067
0.3964409 0.58825016 0.7197865 0.5869277 0.49825677 0.86820704 0.76473325 0.8918187
0.92664284 0.7568421 0.90855414 0.40191135 0.54888904 0.7084761 0.6040292 0.37134707
0.23819523 0.32925847 0.5307593 0.61329544 0.51599026 0.38202414 0.3131506 0.2694689
0.26220208 0.41073114 0.63794255 0.6197096 0.45226648 0.7272658 0.7709203 0.857442
0.88372004 0.8341029 0.78262264 0.41687232 0.68185455 0.71246445 0.5034018 0.3028642
0.19320764 0.23367567 0.37973723 0.42518708 0.28161553 0.14177313 0.17893715 0.27274966
0.26757187 0.30773896 0.533215 0.6403902 0.46283376 0.6056144 0.7694046 0.72751087
0.8251053 0.82191575 0.7036253 0.46041584 0.6992976 0.57737046 0.36855602 0.25896767
0.12527505 0.08176192 0.26093343 0.4185684 0.2888818 0.06731199 0.10142993 0.29759926
0.31571206 0.23806158 0.41143063 0.63465464 0.50170124 0.53029376 0.78076774 0.6650909
0.8244557 0.75895154 0.6330784 0.48467776 0.6285277 0.37697732 0.24098143 0.24312826
0.049186196 -0.09727879 0.16121778 0.5080474 0.42650363 0.08355968 0.044085097 0.3075131
0.36427423 0.18730856 0.29101065 0.6059048 0.5308671 0.4614858 0.7698537 0.6941934
0.84713936 0.72420055 0.5914663 0.53616923 0.6037802 0.26720446 0.22719893 0.33833796
0.076539524 -0.19886911 0.07474349 0.539047 0.47912383 0.03876347 -0.042027503 0.30622253
0.42153522 0.17172322 0.20853293 0.5900272 0.5641494 0.40481701 0.73049265 0.7396546
0.837546 0.74422765 0.5927938 0.6127266 0.65354615 0.27414963 0.30850342 0.5061872
0.20238213 -0.19323559 0.016463561 0.48284766 0.40385458 -0.083050735 -0.14826256 0.29343846
0.46733782 0.17494927 0.16739906 0.5974053 0.6136151 0.3906399 0.6954426 0.74446464
0.816377 0.78268546 0.60733813 0.6429286 0.69106674 0.2917224 0.33747387 0.56865716
0.26386517 -0.18147342 -0.03181777 0.3977575 0.30536395 -0.17813388 -0.21792312 0.26533315

offset f8 [3]
00000000: 0000 00b0 b188 a53f 0000 0000 b831 8f3f
00000010: ffff ffff da1d 793f
0.042058518156409264 0.015231549739837646 0.0061319880187511435

weights f4 [13824]
00000000: b611 7f3f f330 283f 1b97 0b3f 750a 313f
00000010: 71dc 833f fffe 1b3f 4aa9 a03d f1a7 cc3e
00000020: faff 7e3f 3862 583f 457b 413e 575d a9bb
00000030: efe8 c73e 0abb 213f 942c c73e 7b33 403e
00000040: 1f0a e03e a2da 3d3f 0adb 273f ec90 103f
00000050: 2887 4b3f 4ff8 2a3f 57d4 853f 375a 6a3f
00000060: f334 243f b4b4 573f 54dd 883f ca9d 103f
00000070: 8a14 9e3e a3e2 583e 536c 533e a2dd 143f
00000080: e3bb 793f e272 393f 609e 433d a173 19be
00000090: 32f0 bd3e 9487 553f fee6 1c3f a519 d53d
000000a0: 4110 1b3d 6327 bf3e 9bb7 0b3f 49ff 163f
000000b0: 7b90 6c3f ed76 7f3f d10b fe3e 626f 7d3f
000000c0: 2c04 5f3f 00ac 233f 7722 053f 673c be3e
000000d0: b1e2 1f3f 5b02 363f 3490 823e d566 643d
000000e0: 3248 003f 186f 5d3f 2edf 153f cb5d 063e
000000f0: 65ad 263e fa08 0a3f 9365 303f 6841 0d3f
00000100: 0b18 073f 7453 273f 3048 0d3f e27a 9a3e
00000110: a758 ee3e 33e1 5e3f c525 4f3f 733e 783f
00000120: 3d57 433f 5fbc 363f 2db3 fb3e 4183 e53e
00000130: d60f 343f b34d 463f 1697 333e 3a9c 3cbe
00000140: 933d c03e f404 863f 2c3e 463f 0373 7dbe
00000150: 909e 7bbf 74a8 67bf 1591 a8be 59e0 913e
00000160: 62af 3c3f 84e8 603f 44cc 243f 7a6c c53e
00000170: 040f 0c3f 349d 643f 695d 453f 4e54 493f
00000180: dc97 2f3f d947 3d3f 5780 023f 336b eb3e
00000190: cb3b fd3e 14b1 113f e960 113e 03b6 31be
000001a0: 1f39 963e cb11 793f 844c 743f 3660 9b3e
000001b0: 77e0 65be a6e5 7bbe 9c9d 423d c850 c83e
000001c0: aeab 1f3f 9f2b 163f 716d b13e f6b7 9d3e
000001d0: 5f42 1d3f 48b1 603f ae9c 203f ce17 473f
000001e0: 4522 353f 266f 3c3f 646e 013f 605d 003f
000001f0: 73a3 ca3e 9845 fa3e a40b 813e 9089 93bc
00000200: c9ff 463e 8dad 173f 08a6 3b3f a32f 473f
00000210: b08b 763f cb5c 853f e029 483f 882d e63e
00000220: 99d4 ab3e 8a2d 983e 56d6 653e 58a2 b43e
00000230: 43aa 223f 05ec 503f e313 2e3f d027 5c3f
00000240: affe 313f 0128 2d3f 5d3a e63e 64bb 093f
00000250: e2a1 c63e 24ce d53e 0b7f 743e d757 823d
00000260: cea1 243e 9de7 3e3e 3849 0a3d 263c 3f3e
00000270: 9789 353f 4572 663f e5a5 dd3e cd24 5fbd
00000280: 00f8 9137 48b8 913e 84ce cb3e 0929 fa3e
00000290: 43e4 113f 3a5d 2b3f 53f3 333f c368 4f3f
000002a0: e3b5 2f3f 94f6 1b3f 90c9 c63e bc57 103f
000002b0: 3474 d73e d32e 9b3e 8a6c 043d 5497 55ba
000002c0: a8bd 903e eaad 613e 6cff 8dbe 963b d5be
000002d0: 6eea d53c f31f 783e ec41 20be 00b8 dbbe
000002e0: be67 b3bc 2e81 043f fc1a 203f 9329 0d3f
000002f0: dc77 f33e 7565 123f 9619 293f 50d1 393f
00000300: 6b6a 3a3f 1a98 183f 9f56 bb3e 4806 143f
00000310: 805f fc3e 6e8e 8a3e c1d3 1abe 0bc9 ebbd
00000320: d1d9 e23e 9e89 143f 2828 403d 25be 7fbe
00000330: ac1a a13d e216 873e 3ca0 cdbd 4950 90be
00000340: ea7f 513e a2a7 333f ceba 293f 001c fb3e
00000350: 590d dd3e 6e34 193f d1e0 283f 17f0 383f
00000360: 9ca3 3f3f c8fc 1d3f cdf8 bb3e b727 0c3f
00000370: 8f02 0f3f f1a6 bc3e b614 17be 2e1e 3abe
00000380: 10e8 e33e 2616 3e3f 99d0 b23e 3a52 f43d
00000390: dd1b e93e 738d 1d3f 7f4c 4d3e 03e9 8fbd
000003a0: 64be 8d3e 79c0 1e3f f5a2 013f c74e ca3e
000003b0: 07b4 e83e ef46 283f 0c81 343f cd1d 443f
000003c0: 2fab 333f 2cf6 223f 1bd5 c23e 8322 f63e
000003d0: 4ed2 113f 13d1 fc3e f9f1 96bc 7976 39be
000003e0: cf22 973e f623 0d3f a82e 723e 9de3 cf3d
000003f0: c54b f33e 7126 223f 9e25 4e3e 9718 01be
0.996364 0.6569969 0.54527444 0.6915658 1.0301648 0.6093597 0.07844789 0.3997188
0.9960934 0.8452487 0.1889468 -0.0051685977 0.39044902 0.63176024 0.38901198 0.18769638
0.43757722 0.7416173 0.655686 0.56471133 0.7950311 0.6678514 1.0455426 0.91543907
0.64143294 0.84260106 1.0692544 0.56490767 0.30875045 0.21180205 0.20646791 0.58150685
0.9755232 0.7244092 0.04775846 -0.14985515 0.37097317 0.8341 0.61289966 0.10405282
0.037857298 0.37334737 0.54577035 0.58983284 0.9240796 0.9979084 0.4961839 0.9899808
0.8711574 0.63934326 0.52005714 0.37155458 0.6245528 0.71097344 0.25500643 0.05576213
0.5011016 0.8649764 0.5854367 0.13121717 0.16277082 0.5391995 0.6890499 0.55177927
0.5277106 0.65361714 0.55188274 0.30171877 0.4655201 0.87062377 0.80917007 0.9697029
0.7630499 0.7138118 0.49160138 0.448267 0.70336664 0.7746231 0.17538103 -0.1841897
0.37546977 1.0470262 0.77438617 -0.24750905 -0.9828882 -0.90491414 -0.3292319 0.28491476
0.7370511 0.8785479 0.64374185 0.38559324 0.5471041 0.8930237 0.7709566 0.78644264
0.68591094 0.73937756 0.5097708 0.45980224 0.4945968 0.56910825 0.14197125 -0.17354588
0.29340455 0.97292775 0.95429254 0.3034684 -0.22448908 -0.24599323 0.04751359 0.3912413
0.6237134 0.5866031 0.3465381 0.30804414 0.614294 0.8777051 0.62739074 0.777707
0.70755416 0.736071 0.5055907 0.5014248 0.39577827 0.4888122 0.25204194 -0.01800993
0.19433512 0.5924919 0.7330022 0.7780706 0.96306896 1.0418943 0.78188896 0.44956613
0.33560637 0.29722244 0.22445044 0.35280108 0.6354105 0.8161014 0.67999095 0.8599825
0.6952924 0.67639166 0.44966403 0.5380156 0.38795382 0.41758835 0.23876588 0.0636441
0.16077349 0.18643041 0.033761233 0.18675289 0.7091307 0.9001811 0.4329063 -0.054478455
1.7400831e-05 0.28460908 0.39805996 0.48859432 0.56988925 0.6693913 0.7029316 0.8101923
0.6863691 0.60923123 0.38825655 0.5638387 0.42080843 0.30309162 0.032330073 -0.0008147855
0.28269696 0.22038999 -0.27733934 -0.41647023 0.026112761 0.24230938 -0.15650147 -0.42913818
-0.021900054 0.5175961 0.62541175 0.5514156 0.47552383 0.5718606 0.66054666 0.7258501
0.7281863 0.5960709 0.36589524 0.57822084 0.4929161 0.2706179 -0.1511984 -0.11512955
0.44306806 0.5802249 0.046913296 -0.24974878 0.078664154 0.26384646 -0.10040328 -0.28186253
0.20458952 0.7017766 0.66300666 0.490448 0.43174246 0.59845626 0.6596804 0.7224135
0.74859023 0.6171384 0.36713257 0.547481 0.5586328 0.36846116 -0.14753994 -0.18175575
0.44512987 0.74252546 0.34924772 0.11929746 0.4552907 0.6154396 0.20048712 -0.07026865
0.2768432 0.6201244 0.5063928 0.39513227 0.4544985 0.65733236 0.7050941 0.7660797
0.7018308 0.6365688 0.38053212 0.48073205 0.56961524 0.4937826 -0.018425928 -0.181116
0.29518744 0.55133 0.2365061 0.10150836 0.47518745 0.63339907 0.20131537 -0.12607037

offset f8 [3]
00000000: ffff ffbf 7116 933f 0000 0040 8b12 933f
00000010: ffff ff3f 8f53 b43f
0.018640305846929547 0.018625427037477493 0.07940001785755156
